…
INFO:pykeen.nn.representation:Inferred unique=False for Embedding()
INFO:pykeen.nn.representation:Inferred unique=True for LowRankRepresentation()
INFO:pykeen.nn.message_passing:No num_bases was provided. Using sqrt(num_relations)=8.
INFO:pykeen.nn.representation:Inferred unique=False for Embedding()
INFO:pykeen.nn.representation:Inferred unique=False for Embedding()
INFO:pykeen.nn.representation:Inferred unique=True for LowRankRepresentation()
INFO:pykeen.nn.representation:Inferred unique=False for Embedding()
WARNING:pykeen.nn.message_passing:Layers RGCNLayer(
  (fwd): BasesDecomposition(
    (relation_representations): LowRankRepresentation(
      (base): Embedding(
        (_embeddings): Embedding(8, 40000)
      )
      (weight): Embedding(
        (_embeddings): Embedding(55, 8)
      )
    )
  )
  (bwd): BasesDecomposition(
    (relation_representations): LowRankRepresentation(
      (base): Embedding(
        (_embeddings): Embedding(8, 40000)
      )
      (weight): Embedding(
        (_embeddings): Embedding(55, 8)
      )
    )
  )
  (self_loop): Linear(in_features=200, out_features=200, bias=True)
  (dropout): Dropout(p=0.2, inplace=False)
) has parameters, but no reset_parameters.
WARNING:pykeen.nn.message_passing:Layers RGCNLayer(
  (fwd): BasesDecomposition(
    (relation_representations): LowRankRepresentation(
      (base): Embedding(
        (_embeddings): Embedding(8, 40000)
      )
      (weight): Embedding(
        (_embeddings): Embedding(55, 8)
      )
    )
  )
  (bwd): BasesDecomposition(
    (relation_representations): LowRankRepresentation(
      (base): Embedding(
        (_embeddings): Embedding(8, 40000)
      )
      (weight): Embedding(
        (_embeddings): Embedding(55, 8)
      )
    )
  )
  (self_loop): Linear(in_features=200, out_features=200, bias=True)
  (dropout): Dropout(p=0.2, inplace=False)
) has parameters, but no reset_parameters.
WARNING:pykeen.nn.message_passing:Layers RGCNLayer(
  (fwd): BasesDecomposition(
    (relation_representations): LowRankRepresentation(
      (base): Embedding(
        (_embeddings): Embedding(8, 40000)
      )
      (weight): Embedding(
        (_embeddings): Embedding(55, 8)
      )
    )
  )
  (bwd): BasesDecomposition(
    (relation_representations): LowRankRepresentation(
      (base): Embedding(
        (_embeddings): Embedding(8, 40000)
      )
      (weight): Embedding(
        (_embeddings): Embedding(55, 8)
      )
    )
  )
  (self_loop): Linear(in_features=200, out_features=200, bias=True)
  (dropout): Dropout(p=0.2, inplace=False)
) has parameters, but no reset_parameters.
WARNING:pykeen.nn.message_passing:Layers RGCNLayer(
  (fwd): BasesDecomposition(
    (relation_representations): LowRankRepresentation(
      (base): Embedding(
        (_embeddings): Embedding(8, 40000)
      )
      (weight): Embedding(
        (_embeddings): Embedding(55, 8)
      )
    )
  )
  (bwd): BasesDecomposition(
    (relation_representations): LowRankRepresentation(
      (base): Embedding(
        (_embeddings): Embedding(8, 40000)
      )
      (weight): Embedding(
        (_embeddings): Embedding(55, 8)
      )
    )
  )
  (self_loop): Linear(in_features=200, out_features=200, bias=True)
  (dropout): Dropout(p=0.2, inplace=False)
) has parameters, but no reset_parameters.
WARNING:pykeen.nn.message_passing:Layers RGCNLayer(
  (fwd): BasesDecomposition(
    (relation_representations): LowRankRepresentation(
      (base): Embedding(
        (_embeddings): Embedding(8, 40000)
      )
      (weight): Embedding(
        (_embeddings): Embedding(55, 8)
      )
    )
  )
  (bwd): BasesDecomposition(
    (relation_representations): LowRankRepresentation(
      (base): Embedding(
        (_embeddings): Embedding(8, 40000)
      )
      (weight): Embedding(
        (_embeddings): Embedding(55, 8)
      )
    )
  )
  (self_loop): Linear(in_features=200, out_features=200, bias=True)
  (dropout): Dropout(p=0.2, inplace=False)
) has parameters, but no reset_parameters.
WARNING:pykeen.nn.message_passing:Layers RGCNLayer(
  (fwd): BasesDecomposition(
    (relation_representations): LowRankRepresentation(
      (base): Embedding(
        (_embeddings): Embedding(8, 40000)
      )
      (weight): Embedding(
        (_embeddings): Embedding(55, 8)
      )
    )
  )
  (bwd): BasesDecomposition(
    (relation_representations): LowRankRepresentation(
      (base): Embedding(
        (_embeddings): Embedding(8, 40000)
      )
      (weight): Embedding(
        (_embeddings): Embedding(55, 8)
      )
    )
  )
  (self_loop): Linear(in_features=200, out_features=200, bias=True)
  (dropout): Dropout(p=0.2, inplace=False)
) has parameters, but no reset_parameters.
Running R-GCN on Nations
Training epochs on cuda:0:   0%|          | 0/50 [00:00<?, ?epoch/s]Training epochs on cuda:0:   0%|          | 0/50 [00:00<?, ?epoch/s, loss=1.5, prev_loss=nan]Training epochs on cuda:0:   2%|▏         | 1/50 [00:00<00:46,  1.07epoch/s, lo
…
