…
perf_2026              /home/users/grkremer/miniconda3/envs/perf_2026

2 channel Terms of Service accepted

EnvironmentFileNotFound: '/home/users/grkremer/perf_2026/environment.yml' file not found

/home/users/grkremer/miniconda3/envs/perf_2026/lib/python3.13/site-packages/torch/cuda/__init__.py:61: FutureWarning: The pynvml package is deprecated. Please install nvidia-ml-py instead. If you did not install pynvml directly, please report this to the maintainers of the package that installed pynvml for you.
  import pynvml  # type: ignore[import]
Layers RGCNLayer(
  (fwd): BasesDecomposition(
    (relation_representations): LowRankRepresentation(
      (base): Embedding(
        (_embeddings): Embedding(19, 40000)
      )
      (weight): Embedding(
        (_embeddings): Embedding(351, 19)
      )
    )
  )
  (bwd): BasesDecomposition(
    (relation_representations): LowRankRepresentation(
      (base): Embedding(
        (_embeddings): Embedding(19, 40000)
      )
      (weight): Embedding(
        (_embeddings): Embedding(351, 19)
      )
    )
  )
  (self_loop): Linear(in_features=200, out_features=200, bias=True)
  (dropout): Dropout(p=0.2, inplace=False)
) has parameters, but no reset_parameters.
Layers RGCNLayer(
  (fwd): BasesDecomposition(
    (relation_representations): LowRankRepresentation(
      (base): Embedding(
        (_embeddings): Embedding(19, 40000)
      )
      (weight): Embedding(
        (_embeddings): Embedding(351, 19)
      )
    )
  )
  (bwd): BasesDecomposition(
    (relation_representations): LowRankRepresentation(
      (base): Embedding(
        (_embeddings): Embedding(19, 40000)
      )
      (weight): Embedding(
        (_embeddings): Embedding(351, 19)
      )
    )
  )
  (self_loop): Linear(in_features=200, out_features=200, bias=True)
  (dropout): Dropout(p=0.2, inplace=False)
) has parameters, but no reset_parameters.
WARNING:pykeen.nn.message_passing:Layers RGCNLayer(
  (fwd): BasesDecomposition(
    (relation_representations): LowRankRepresentation(
      (base): Embedding(
        (_embeddings): Embedding(19, 40000)
      )
      (weight): Embedding(
        (_embeddings): Embedding(351, 19)
      )
    )
  )
  (bwd): BasesDecomposition(
    (relation_representations): LowRankRepresentation(
      (base): Embedding(
        (_embeddings): Embedding(19, 40000)
      )
      (weight): Embedding(
        (_embeddings): Embedding(351, 19)
      )
    )
  )
  (self_loop): Linear(in_features=200, out_features=200, bias=True)
  (dropout): Dropout(p=0.2, inplace=False)
) has parameters, but no reset_parameters.
WARNING:pykeen.nn.message_passing:Layers RGCNLayer(
  (fwd): BasesDecomposition(
    (relation_representations): LowRankRepresentation(
      (base): Embedding(
        (_embeddings): Embedding(19, 40000)
      )
      (weight): Embedding(
        (_embeddings): Embedding(351, 19)
      )
    )
  )
  (bwd): BasesDecomposition(
    (relation_representations): LowRankRepresentation(
      (base): Embedding(
        (_embeddings): Embedding(19, 40000)
      )
      (weight): Embedding(
        (_embeddings): Embedding(351, 19)
      )
    )
  )
  (self_loop): Linear(in_features=200, out_features=200, bias=True)
  (dropout): Dropout(p=0.2, inplace=False)
) has parameters, but no reset_parameters.
INFO:pykeen.training.training_loop:Starting sub_batch_size search for training now...
WARNING:pykeen.nn.message_passing:Layers RGCNLayer(
  (fwd): BasesDecomposition(
    (relation_representations): LowRankRepresentation(
      (base): Embedding(
        (_embeddings): Embedding(19, 40000)
      )
      (weight): Embedding(
        (_embeddings): Embedding(351, 19)
      )
    )
  )
  (bwd): BasesDecomposition(
    (relation_representations): LowRankRepresentation(
      (base): Embedding(
        (_embeddings): Embedding(19, 40000)
      )
      (weight): Embedding(
        (_embeddings): Embedding(351, 19)
      )
    )
  )
  (self_loop): Linear(in_features=200, out_features=200, bias=True)
  (dropout): Dropout(p=0.2, inplace=False)
) has parameters, but no reset_parameters.
WARNING:pykeen.nn.message_passing:Layers RGCNLayer(
  (fwd): BasesDecomposition(
    (relation_representations): LowRankRepresentation(
      (base): Embedding(
        (_embeddings): Embedding(19, 40000)
      )
      (weight): Embedding(
        (_embeddings): Embedding(351, 19)
      )
    )
  )
  (bwd): BasesDecomposition(
    (relation_representations): LowRankRepresentation(
      (base): Embedding(
        (_embeddings): Embedding(19, 40000)
      )
      (weight): Embedding(
        (_embeddings): Embedding(351, 19)
      )
    )
  )
  (self_loop): Linear(in_features=200, out_features=200, bias=True)
  (dropout): Dropout(p=0.2, inplace=False)
) has parameters, but no reset_parameters.
WARNING:pykeen.nn.message_passing:Layers RGCNLayer(
  (fwd): BasesDecomposition(
    (relation_representations): LowRankRepresentation(
      (base): Embedding(
        (_embeddings): Embedding(19, 40000)
      )
      (weight): Embedding(
        (_embeddings): Embedding(351, 19)
      )
    )
  )
  (bwd): BasesDecomposition(
    (relation_representations): LowRankRepresentation(
      (base): Embedding(
        (_embeddings): Embedding(19, 40000)
      )
      (weight): Embedding(
        (_embeddings): Embedding(351, 19)
      )
    )
  )
  (self_loop): Linear(in_features=200, out_features=200, bias=True)
  (dropout): Dropout(p=0.2, inplace=False)
) has parameters, but no reset_parameters.
WARNING:pykeen.nn.message_passing:Layers RGCNLayer(
  (fwd): BasesDecomposition(
    (relation_representations): LowRankRepresentation(
      (base): Embedding(
        (_embeddings): Embedding(19, 40000)
      )
      (weight): Embedding(
        (_embeddings): Embedding(351, 19)
      )
    )
  )
  (bwd): BasesDecomposition(
    (relation_representations): LowRankRepresentation(
      (base): Embedding(
        (_embeddings): Embedding(19, 40000)
      )
      (weight): Embedding(
        (_embeddings): Embedding(351, 19)
      )
    )
  )
  (self_loop): Linear(in_features=200, out_features=200, bias=True)
  (dropout): Dropout(p=0.2, inplace=False)
) has parameters, but no reset_parameters.
WARNING:pykeen.nn.message_passing:Layers RGCNLayer(
  (fwd): BasesDecomposition(
    (relation_representations): LowRankRepresentation(
      (base): Embedding(
        (_embeddings): Embedding(19, 40000)
      )
      (weight): Embedding(
        (_embeddings): Embedding(351, 19)
      )
    )
  )
  (bwd): BasesDecomposition(
    (relation_representations): LowRankRepresentation(
      (base): Embedding(
        (_embeddings): Embedding(19, 40000)
      )
      (weight): Embedding(
        (_embeddings): Embedding(351, 19)
      )
    )
  )
  (self_loop): Linear(in_features=200, out_features=200, bias=True)
  (dropout): Dropout(p=0.2, inplace=False)
) has parameters, but no reset_parameters.
WARNING:pykeen.nn.message_passing:Layers RGCNLayer(
  (fwd): BasesDecomposition(
    (relation_representations): LowRankRepresentation(
      (base): Embedding(
        (_embeddings): Embedding(19, 40000)
      )
      (weight): Embedding(
        (_embeddings): Embedding(351, 19)
      )
    )
  )
  (bwd): BasesDecomposition(
    (relation_representations): LowRankRepresentation(
      (base): Embedding(
        (_embeddings): Embedding(19, 40000)
      )
      (weight): Embedding(
        (_embeddings): Embedding(351, 19)
      )
    )
  )
  (self_loop): Linear(in_features=200, out_features=200, bias=True)
  (dropout): Dropout(p=0.2, inplace=False)
) has parameters, but no reset_parameters.
WARNING:pykeen.nn.message_passing:Layers RGCNLayer(
  (fwd): BasesDecomposition(
    (relation_representations): LowRankRepresentation(
      (base): Embedding(
        (_embeddings): Embedding(19, 40000)
      )
      (weight): Embedding(
        (_embeddings): Embedding(351, 19)
      )
    )
  )
  (bwd): BasesDecomposition(
    (relation_representations): LowRankRepresentation(
      (base): Embedding(
        (_embeddings): Embedding(19, 40000)
      )
      (weight): Embedding(
        (_embeddings): Embedding(351, 19)
      )
    )
  )
  (self_loop): Linear(in_features=200, out_features=200, bias=True)
  (dropout): Dropout(p=0.2, inplace=False)
) has parameters, but no reset_parameters.
WARNING:pykeen.nn.message_passing:Layers RGCNLayer(
  (fwd): BasesDecomposition(
    (relation_representations): LowRankRepresentation(
      (base): Embedding(
        (_embeddings): Embedding(19, 40000)
      )
      (weight): Embedding(
        (_embeddings): Embedding(351, 19)
      )
    )
  )
  (bwd): BasesDecomposition(
    (relation_representations): LowRankRepresentation(
      (base): Embedding(
        (_embeddings): Embedding(19, 40000)
      )
      (weight): Embedding(
        (_embeddings): Embedding(351, 19)
      )
    )
  )
  (self_loop): Linear(in_features=200, out_features=200, bias=True)
  (dropout): Dropout(p=0.2, inplace=False)
) has parameters, but no reset_parameters.
WARNING:pykeen.nn.message_passing:Layers RGCNLayer(
  (fwd): BasesDecomposition(
    (relation_representations): LowRankRepresentation(
      (base): Embedding(
        (_embeddings): Embedding(19, 40000)
      )
      (weight): Embedding(
        (_embeddings): Embedding(351, 19)
      )
    )
  )
  (bwd): BasesDecomposition(
    (relation_representations): LowRankRepresentation(
      (base): Embedding(
        (_embeddings): Embedding(19, 40000)
      )
      (weight): Embedding(
        (_embeddings): Embedding(351, 19)
      )
    )
  )
  (self_loop): Linear(in_features=200, out_features=200, bias=True)
  (dropout): Dropout(p=0.2, inplace=False)
) has parameters, but no reset_parameters.
WARNING:pykeen.nn.message_passing:Layers RGCNLayer(
  (fwd): BasesDecomposition(
    (relation_representations): LowRankRepresentation(
      (base): Embedding(
        (_embeddings): Embedding(19, 40000)
      )
      (weight): Embedding(
        (_embeddings): Embedding(351, 19)
      )
    )
  )
  (bwd): BasesDecomposition(
    (relation_representations): LowRankRepresentation(
      (base): Embedding(
        (_embeddings): Embedding(19, 40000)
      )
      (weight): Embedding(
        (_embeddings): Embedding(351, 19)
      )
    )
  )
  (self_loop): Linear(in_features=200, out_features=200, bias=True)
  (dropout): Dropout(p=0.2, inplace=False)
) has parameters, but no reset_parameters.
WARNING:pykeen.nn.message_passing:Layers RGCNLayer(
  (fwd): BasesDecomposition(
    (relation_representations): LowRankRepresentation(
      (base): Embedding(
        (_embeddings): Embedding(19, 40000)
      )
      (weight): Embedding(
        (_embeddings): Embedding(351, 19)
      )
    )
  )
  (bwd): BasesDecomposition(
    (relation_representations): LowRankRepresentation(
      (base): Embedding(
        (_embeddings): Embedding(19, 40000)
      )
      (weight): Embedding(
        (_embeddings): Embedding(351, 19)
      )
    )
  )
  (self_loop): Linear(in_features=200, out_features=200, bias=True)
  (dropout): Dropout(p=0.2, inplace=False)
) has parameters, but no reset_parameters.
WARNING:pykeen.nn.message_passing:Layers RGCNLayer(
  (fwd): BasesDecomposition(
    (relation_representations): LowRankRepresentation(
      (base): Embedding(
        (_embeddings): Embedding(19, 40000)
      )
      (weight): Embedding(
        (_embeddings): Embedding(351, 19)
      )
    )
  )
  (bwd): BasesDecomposition(
    (relation_representations): LowRankRepresentation(
      (base): Embedding(
        (_embeddings): Embedding(19, 40000)
      )
      (weight): Embedding(
        (_embeddings): Embedding(351, 19)
      )
    )
  )
  (self_loop): Linear(in_features=200, out_features=200, bias=True)
  (dropout): Dropout(p=0.2, inplace=False)
) has parameters, but no reset_parameters.
WARNING:pykeen.nn.message_passing:Layers RGCNLayer(
  (fwd): BasesDecomposition(
    (relation_representations): LowRankRepresentation(
      (base): Embedding(
        (_embeddings): Embedding(19, 40000)
      )
      (weight): Embedding(
        (_embeddings): Embedding(351, 19)
      )
    )
  )
  (bwd): BasesDecomposition(
    (relation_representations): LowRankRepresentation(
      (base): Embedding(
        (_embeddings): Embedding(19, 40000)
      )
      (weight): Embedding(
        (_embeddings): Embedding(351, 19)
      )
    )
  )
  (self_loop): Linear(in_features=200, out_features=200, bias=True)
  (dropout): Dropout(p=0.2, inplace=False)
) has parameters, but no reset_parameters.
WARNING:pykeen.nn.message_passing:Layers RGCNLayer(
  (fwd): BasesDecomposition(
    (relation_representations): LowRankRepresentation(
      (base): Embedding(
        (_embeddings): Embedding(19, 40000)
      )
      (weight): Embedding(
        (_embeddings): Embedding(351, 19)
      )
    )
  )
  (bwd): BasesDecomposition(
    (relation_representations): LowRankRepresentation(
      (base): Embedding(
        (_embeddings): Embedding(19, 40000)
      )
      (weight): Embedding(
        (_embeddings): Embedding(351, 19)
      )
    )
  )
  (self_loop): Linear(in_features=200, out_features=200, bias=True)
  (dropout): Dropout(p=0.2, inplace=False)
) has parameters, but no reset_parameters.
WARNING:pykeen.nn.message_passing:Layers RGCNLayer(
  (fwd): BasesDecomposition(
    (relation_representations): LowRankRepresentation(
      (base): Embedding(
        (_embeddings): Embedding(19, 40000)
      )
      (weight): Embedding(
        (_embeddings): Embedding(351, 19)
      )
    )
  )
  (bwd): BasesDecomposition(
    (relation_representations): LowRankRepresentation(
      (base): Embedding(
        (_embeddings): Embedding(19, 40000)
      )
      (weight): Embedding(
        (_embeddings): Embedding(351, 19)
      )
    )
  )
  (self_loop): Linear(in_features=200, out_features=200, bias=True)
  (dropout): Dropout(p=0.2, inplace=False)
) has parameters, but no reset_parameters.
WARNING:pykeen.nn.message_passing:Layers RGCNLayer(
  (fwd): BasesDecomposition(
    (relation_representations): LowRankRepresentation(
      (base): Embedding(
        (_embeddings): Embedding(19, 40000)
      )
      (weight): Embedding(
        (_embeddings): Embedding(351, 19)
      )
    )
  )
  (bwd): BasesDecomposition(
    (relation_representations): LowRankRepresentation(
      (base): Embedding(
        (_embeddings): Embedding(19, 40000)
      )
      (weight): Embedding(
        (_embeddings): Embedding(351, 19)
      )
    )
  )
  (self_loop): Linear(in_features=200, out_features=200, bias=True)
  (dropout): Dropout(p=0.2, inplace=False)
) has parameters, but no reset_parameters.
INFO:pykeen.training.training_loop:Even sub_batch_size=1 does not fit in memory with these parameters
WARNING:pykeen.training.slcwa:This model supports sub-batching, but it also requires slicing, which is not possible for sLCWA
Running R-GCN on DBPedia50
Traceback (most recent call last):
…
